app/src/main/assets/model_spam.tflite (tflite, 81075 bytes, 5 tensors)

sequential/dense/BiasAdd/ReadVariableOp/resource f4 [7]
000000 54 be b7 3d a7 ef 0e bd 7a 17 d6 bd b5 94 0b 3f
       0.08971849 -0.03489652 -0.104536965 0.54523784
000010 3c aa a7 bc c8 d8 2f 3c d0 e2 a5 3d
       -0.020466916 0.010732837 0.08099902

sequential/dense_1/BiasAdd/ReadVariableOp/resource f4 [2]
000000 33 f5 70 bf 2f f5 70 3f
       -0.94124144 0.9412412

sequential/embedding/embedding_lookup/13029 f4 [2003, 7]
000000 86 75 69 3d 4e 21 21 be fe fd 6c bd 8d dc c3 bd
       0.056996845 -0.15735361 -0.057859413 -0.09563551
000010 4b 12 0b 3e 20 7d aa 3d b2 8c 50 be 0d 66 97 bd
       0.13581197 0.08324647 -0.20366171 -0.073925115
000020 ec 61 1f bd df 8a 39 3d b1 e1 27 3e cb 86 ae bd
       -0.038911745 0.045298453 0.16394688 -0.085218035
000030 77 32 44 3d 7a 1b 04 be 73 45 e7 3c b8 97 14 bd
       0.04789969 -0.12901106 0.028231358 -0.036277503
000040 59 07 81 bd cd 44 c2 3c b6 06 1d 3d 05 04 39 3d
       -0.063002296 0.023714447 0.03833648 0.04516985
000050 5f 10 eb bd ea 8d 4f be 14 46 3e 3e 6d c1 5b 3e
       -0.11477732 -0.2026898 0.1858142 0.21460505
000060 b6 64 4d 3e 6f ad 84 be 3f eb 0e be e0 50 02 3e
       0.2005795 -0.2591357 -0.13956927 0.12726164
000070 00 9d 3f bc 30 af 6a bb c1 dc 0d 3d 8c 27 4f 3c
       -0.011695147 -0.0035809986 0.034634355 0.012643706
000080 56 38 0c bd a9 44 1e 3d 77 13 2b 3d e8 9c c9 bb
       -0.034233414 0.0386397 0.04176661 -0.006152738
000090 66 74 05 bd 86 ee a1 3c 74 4f 4b bc 57 8e 34 bd
       -0.03258171 0.019767057 -0.01240908 -0.04408106
0000a0 c0 60 46 3a ce ed d5 3c 9f 22 75 bf 2b 8a 47 3f
       0.00075675175 0.02611437 -0.9575595 0.779452
0000b0 75 40 56 3f f8 59 7f 3f 60 62 6f bf 65 9b 57 bf
       0.83692104 0.99746656 -0.93509483 -0.8422149
0000c0 d6 3c 3a 3f ca 46 92 be 04 a0 36 3d 26 1e 8b 3d
       0.7274908 -0.28569633 0.044586197 0.0679286
0000d0 3c 5c aa 3e a7 9d 96 be b4 71 75 3c a1 cc d8 bd
       0.33273494 -0.29417154 0.014980722 -0.10585905
0000e0 c3 ae d5 bf f3 81 c9 3f 58 d6 d0 3f 38 fc d2 3f
       -1.6693958 1.5742782 1.6315413 1.6483221
0000f0 e7 5a d5 bf 0a ff d2 bf 55 e6 ca 3f db 86 d2 bf
       -1.6668366 -1.6484082 1.5851542 -1.6447405
000100 50 93 cc 3f 5e 99 d0 3f 31 56 d4 3f 03 3d d1 bf
       1.5982456 1.6296804 1.6588804 -1.6346744
000110 bd 4e c8 bf 96 5f c2 3f 79 0c 17 bf 4c c8 d5 3e
       -1.5649029 1.518542 -0.59003407 0.41754377
000120 7e a0 01 3f 7c 64 2f 3f f9 dd 2d bf 46 5b cb be
       0.50635517 0.685127 -0.6791683 -0.39718074
000130 ee b6 a0 3e 11 f6 55 bf d4 09 f7 3e 44 4f 15 3f
       0.31389564 -0.8357859 0.48249686 0.58324075
000140 d7 01 55 3f 19 46 46 bf 2c ba 0f bf 1d 77 bc 3e
       0.8320593 -0.7745071 -0.5614345 0.36809626
000150 84 b9 f0 3e 91 19 c7 be 3c 21 cd be 9d 98 cb be
       0.47016537 -0.38886693 -0.40064418 -0.39764872
000160 da 09 ce 3e 2d b6 db 3e 7e 27 b9 be e6 f1 12 bd
       0.4024189 0.42912427 -0.36162943 -0.035875224
000170 68 e8 11 3c 8d e9 4a 3d b0 c6 fa 3b 6e f6 a9 3c
       0.008905508 0.049539138 0.00765308 0.02074739
000180 d0 9b 38 bb b2 0d a7 3c b6 2a 29 3e 5d 54 18 be
       -0.0028169043 0.020392273 0.16520199 -0.14875932
000190 91 98 07 be 0b 9c 0e be bc 20 41 3e 1b bc 1c 3e
       -0.13241793 -0.13926713 0.18860143 0.15306132
0001a0 db 69 3d be 18 ae e5 3b e8 b6 8a 3b 3d 11 07 3d
       -0.18497412 0.007009279 0.00423323 0.032975424
0001b0 12 8b bf 3c 80 be d9 bb 99 16 26 3d 18 0a 93 3b
       0.023381744 -0.006645024 0.040548895 0.0044872873
0001c0 33 48 16 bd 4d 0c 49 3d 50 41 09 bd da d2 b0 3c
       -0.03668995 0.049083997 -0.033509552 0.021584917
0001d0 03 b5 19 3d a8 23 1e bc f0 67 1e bd da 29 a9 3c
       0.03752614 -0.009652056 -0.03867334 0.02064984
0001e0 d4 83 09 bd 4d 1b 1a 3d ba 36 35 bd 26 f3 9e 3c
       -0.033572987 0.037623692 -0.044241644 0.019403052
0001f0 3a f1 92 bc 18 2e f5 bb a7 50 f1 bc 63 d5 3f 3d
       -0.017937291 -0.0074823014 -0.029457403 0.04683436
000200 07 24 af bc a6 fc eb 3c 8d af cc bc cd 0c a5 bc
       -0.021379484 0.028806996 -0.024986053 -0.020147705
000210 3a 1b 90 bc fa 3c 32 bf 74 8a 0e 3f 4c 4f 1d 3f
       -0.017591108 -0.6962429 0.5568001 0.6144912
000220 74 bd 3d 3f ae ab 41 bf 8e c8 02 bf 4c 24 ef 3e
       0.7411721 -0.7565259 -0.5108727 0.4670738
000230 c3 18 8c bf 0d 0a 73 3f c4 5a 80 3f 17 fc 8f 3f
       -1.0945057 0.9493721 1.00277 1.1248807
000240 2c 14 8f bf 7e 0e 69 bf 61 0d 65 3f 8e 4c 4d be
       -1.1178031 -0.9103774 0.8947354 -0.20048735
000250 bc 9e 88 3d 8b 02 38 3e 07 6f 3c 3e de 69 32 be
       0.06670901 0.1796972 0.18401729 -0.17423198
000260 24 6b 06 be be 1b f2 3d a7 3c 9b bc 00 13 b9 bb
       -0.13126808 0.11821698 -0.01894982 -0.005648017
000270 64 5e 70 3c fd 9d 14 3d 60 ce d3 ba b0 c4 ca bb
       0.014670942 0.036283482 -0.0016159527 -0.0061879978
000280 e6 d1 20 bd 11 5b 35 bc 24 94 60 bd 00 b6 a2 bd
       -0.039262675 -0.011069075 -0.054828778 -0.0794487
000290 9f 1c a1 bc 22 68 83 3c 56 fa 7a 3d 5f d9 19 bd
       -0.019666968 0.016040865 0.061273895 -0.037560817
0002a0 a1 b7 2a bf ef d7 07 3f e1 e4 1c 3f 9f 7a 3d 3f
       -0.66686445 0.53063864 0.6128674 0.7401523
0002b0 4f 23 41 bf 97 ce 1c bf b5 6e d9 3e bf 04 95 be
       -0.754445 -0.6125273 0.42467275 -0.29105183
0002c0 4a 40 3b 3e e2 d2 83 3e 48 85 64 3e f8 aa 87 be
       0.18286243 0.25746828 0.22316468 -0.26497626
0002d0 a0 be 3f be 9c 5d 13 3e 40 a0 a7 be 53 6a ce 3d
       -0.18725061 0.14391178 -0.3273945 0.100788735
0002e0 7f 9b 66 3e 8d 27 a7 3e 4c 67 a4 be 90 05 2a be
       0.22520255 0.32647362 -0.3211006 -0.16603684
0002f0 da b8 17 3e 50 bf d6 be 7e 96 ae 3e 8b 93 ac 3e
       0.14816609 -0.41942835 0.3409919 0.33706316
000300 63 cf c6 3e 07 4b b0 be b2 51 92 be 62 28 9e 3e
       0.38830099 -0.3443224 -0.28577954 0.30890185
000310 4d 3f df 3e 9a 59 eb be 90 96 f9 be 75 06 d5 be
       0.43602982 -0.45966798 -0.48747683 -0.4160649
000320 b0 63 ba 3e 78 92 e6 3e fb 83 05 bf fe a0 8d 3e
       0.3640418 0.45033622 -0.5215451 0.2766189
000330 85 16 ca be 9a 0f a0 be 6f 63 82 be 6b 15 84 3e
       -0.39470306 -0.31261903 -0.25466487 0.2579759
000340 93 3b aa 3e 28 e5 b2 be 3b 6d 34 3e 77 85 78 be
       0.33248577 -0.34940457 0.17619793 -0.24269663
000350 42 03 81 be 20 48 1b be e0 24 43 3e 3c 13 53 3e
       -0.25197798 -0.15164232 0.19057035 0.20612806
000360 4b 22 6a be 28 60 8d be b9 cc 55 bd 32 6e a1 3d
       -0.22864644 -0.27612424 -0.052197192 0.07882346
000370 50 24 b1 3e 2f 2e 6c be b0 f8 cc 3b bc 56 1b be
       0.34598017 -0.23064493 0.006255232 -0.15169805
000380 15 b7 36 bf 03 47 03 3f 73 97 18 3f 72 49 31 3f
       -0.7137311 0.5128023 0.59606093 0.69252694
000390 42 89 2e bf 62 6e fc be 52 b4 f8 3e 69 43 0d bf
       -0.6817819 -0.49302965 0.48575073 -0.55180985
0003a0 6c cd 80 3e 01 ed e5 3e 1d ca e6 3e c1 07 fe be
       0.25156724 0.44907382 0.45076075 -0.4961529
0003b0 ec b9 c0 be 06 19 00 3e c1 0e 1f 3d a3 d4 05 be
       -0.37641847 0.12509546 0.03883243 -0.13069396
0003c0 07 2a b1 bd 15 09 1f 3c 5f 7e 87 3d af b4 21 3e
       -0.08650594 0.009706755 0.066159 0.15791582
0003d0 92 b5 21 be d3 03 55 be d1 b7 82 bc 01 cf 87 3d
       -0.1579192 -0.2080224 -0.015956791 0.0663128
0003e0 b6 d3 3a 3e 84 77 7b be 44 40 6e 3d cc 04 99 bd
       0.18244824 -0.2455731 0.058166757 -0.07471618
0003f0 d8 6e 48 3e 0e 4a 84 be 96 55 81 be 67 80 3d be
       0.19573534 -0.2583775 -0.2526061 -0.18506013

sequential/dense/MatMul f4 [7, 7]
000000 e3 49 dd 3f 47 b6 87 bf c4 4a a2 bf aa c5 c2 bf
       1.7288173 -1.0602502 -1.2679067 -1.5216572
000010 de 72 af 3f e0 cb 89 3f 9e 02 51 bf db 96 89 3f
       1.370693 1.0765343 -0.8164462 1.0749162
000020 fc 33 54 bf c7 88 bc bf 16 78 a0 bf c4 af 93 3f
       -0.8289182 -1.4729241 -1.2536647 1.1538014
000030 81 bf 97 3f ad e6 0d bf 30 27 9c 3e 3f a2 2f be
       1.1855317 -0.5543011 0.30498648 -0.17151736
000040 44 4a ae be a2 92 bb be 89 3f db be de dc 34 bf
       -0.34041035 -0.3663531 -0.4282191 -0.70649517
000050 8c 3b c9 be 14 72 9a bf be 5a dc 3e 15 4d 5a 3f
       -0.39303243 -1.2066064 0.4303798 0.8527387
000060 eb eb c6 3f 79 4d a9 bf a8 76 3b bf 8b 5a 5c 3e
       1.5540746 -1.3226768 -0.7322793 0.21518914
000070 c4 aa 63 3e 1d d4 00 3e 08 25 b6 3e e5 95 7c 3e
       0.2223311 0.12580915 0.35575128 0.24666555
000080 08 62 0d 3f e1 8d 85 3e 4b 39 aa 3e 28 61 9a 3f
       0.5522771 0.26084808 0.33246836 1.20609
000090 85 3d a6 bf 1f 0f bd bf d8 c3 3c bf 9f 80 c1 3f
       -1.2987524 -1.477024 -0.73736334 1.5117377
0000a0 02 44 d7 3e db 45 55 bf 8b 27 b4 3f 35 07 c8 be
       0.42044073 -0.83309716 1.4074568 -0.39068
0000b0 31 f5 25 bf d4 1f b7 bf 1b 23 a5 3f c3 e9 94 3f
       -0.6482726 -1.4306588 1.2901338 1.1633838
0000c0 5a e5 9a bf
       -1.2101243

sequential/dense_1/MatMul f4 [2, 7]
000000 7e 6d 8e 3f a7 ee cc 3f 4b 8e 2a 3f e5 dc 03 bf
       1.1127164 1.6010331 0.6662337 -0.51508933
000010 9b d3 93 be 72 b8 57 3f 1e f3 0e 3f eb 8b 42 bf
       -0.2887238 0.84265816 0.5583972 -0.7599475
000020 f2 2d a8 bf c3 17 3b 3f 5a a0 cd 3f ac ef 42 be
       -1.3139021 0.7308313 1.606456 -0.1903674
000030 af 7f ad bf e1 21 c5 bf
       -1.3554591 -1.5400964
